Model: "model"
_________________________________________________________________
Layer (type)                 Output Shape              Param #   
=================================================================
input_1 (InputLayer)         [(None, 500, 30, 2, 2)]   0         
_________________________________________________________________
lambda_1 (Lambda)            (None, 500, 120)          0         
_________________________________________________________________
batch_normalization (BatchNo (None, 500, 120)          480       
_________________________________________________________________
tcn (TCN)                    (None, 120)               411600    
_________________________________________________________________
batch_normalization_1 (Batch (None, 120)               480       
_________________________________________________________________
flatten (Flatten)            (None, 120)               0         
_________________________________________________________________
dense (Dense)                (None, 120)               14520     
=================================================================
Total params: 427,080
Trainable params: 423,240
Non-trainable params: 3,840
_________________________________________________________________
Model: "model_1"
__________________________________________________________________________________________________
Layer (type)                    Output Shape         Param #     Connected to                     
…
==================================================================================================
Total params: 427,080
Trainable params: 423,240
Non-trainable params: 3,840
__________________________________________________________________________________________________
Model: "model"
_________________________________________________________________
Layer (type)                 Output Shape              Param #   
=================================================================
input_1 (InputLayer)         [(None, 500, 30, 2, 2)]   0         
_________________________________________________________________
lambda_1 (Lambda)            (None, 500, 120)          0         
_________________________________________________________________
batch_normalization (BatchNo (None, 500, 120)          480       
_________________________________________________________________
matching_identity (Lambda)   (None, 500, 120)          0         
_________________________________________________________________
activation_2 (Activation)    (None, 500, 120)          0         
_________________________________________________________________
conv1D_0 (Conv1D)            (None, 500, 120)          28920     
_________________________________________________________________
batch_normalization (BatchNo (None, 500, 120)          480       
_________________________________________________________________
activation (Activation)      (None, 500, 120)          0         
_________________________________________________________________
spatial_dropout1d (SpatialDr (None, 500, 120)          0         
_________________________________________________________________
conv1D_1 (Conv1D)            (None, 500, 120)          28920     
_________________________________________________________________
batch_normalization_1 (Batch (None, 500, 120)          480       
_________________________________________________________________
activation_1 (Activation)    (None, 500, 120)          0         
_________________________________________________________________
spatial_dropout1d_1 (Spatial (None, 500, 120)          0         
_________________________________________________________________
matching_identity (Lambda)   (None, 500, 120)          0         
_________________________________________________________________
activation_5 (Activation)    (None, 500, 120)          0         
_________________________________________________________________
conv1D_0 (Conv1D)            (None, 500, 120)          28920     
_________________________________________________________________
batch_normalization_2 (Batch (None, 500, 120)          480       
_________________________________________________________________
activation_3 (Activation)    (None, 500, 120)          0         
_________________________________________________________________
spatial_dropout1d_2 (Spatial (None, 500, 120)          0         
_________________________________________________________________
conv1D_1 (Conv1D)            (None, 500, 120)          28920     
_________________________________________________________________
batch_normalization_3 (Batch (None, 500, 120)          480       
_________________________________________________________________
activation_4 (Activation)    (None, 500, 120)          0         
_________________________________________________________________
spatial_dropout1d_3 (Spatial (None, 500, 120)          0         
_________________________________________________________________
matching_identity (Lambda)   (None, 500, 120)          0         
_________________________________________________________________
activation_8 (Activation)    (None, 500, 120)          0         
_________________________________________________________________
conv1D_0 (Conv1D)            (None, 500, 120)          28920     
_________________________________________________________________
batch_normalization_4 (Batch (None, 500, 120)          480       
_________________________________________________________________
activation_6 (Activation)    (None, 500, 120)          0         
_________________________________________________________________
spatial_dropout1d_4 (Spatial (None, 500, 120)          0         
_________________________________________________________________
conv1D_1 (Conv1D)            (None, 500, 120)          28920     
_________________________________________________________________
batch_normalization_5 (Batch (None, 500, 120)          480       
_________________________________________________________________
activation_7 (Activation)    (None, 500, 120)          0         
_________________________________________________________________
spatial_dropout1d_5 (Spatial (None, 500, 120)          0         
_________________________________________________________________
matching_identity (Lambda)   (None, 500, 120)          0         
_________________________________________________________________
activation_11 (Activation)   (None, 500, 120)          0         
_________________________________________________________________
conv1D_0 (Conv1D)            (None, 500, 120)          28920     
_________________________________________________________________
batch_normalization_6 (Batch (None, 500, 120)          480       
_________________________________________________________________
activation_9 (Activation)    (None, 500, 120)          0         
_________________________________________________________________
spatial_dropout1d_6 (Spatial (None, 500, 120)          0         
_________________________________________________________________
conv1D_1 (Conv1D)            (None, 500, 120)          28920     
_________________________________________________________________
batch_normalization_7 (Batch (None, 500, 120)          480       
_________________________________________________________________
activation_10 (Activation)   (None, 500, 120)          0         
_________________________________________________________________
spatial_dropout1d_7 (Spatial (None, 500, 120)          0         
_________________________________________________________________
matching_identity (Lambda)   (None, 500, 120)          0         
_________________________________________________________________
activation_14 (Activation)   (None, 500, 120)          0         
_________________________________________________________________
conv1D_0 (Conv1D)            (None, 500, 120)          28920     
_________________________________________________________________
batch_normalization_8 (Batch (None, 500, 120)          480       
_________________________________________________________________
activation_12 (Activation)   (None, 500, 120)          0         
_________________________________________________________________
spatial_dropout1d_8 (Spatial (None, 500, 120)          0         
_________________________________________________________________
conv1D_1 (Conv1D)            (None, 500, 120)          28920     
_________________________________________________________________
batch_normalization_9 (Batch (None, 500, 120)          480       
_________________________________________________________________
activation_13 (Activation)   (None, 500, 120)          0         
_________________________________________________________________
spatial_dropout1d_9 (Spatial (None, 500, 120)          0         
_________________________________________________________________
matching_identity (Lambda)   (None, 500, 120)          0         
_________________________________________________________________
activation_17 (Activation)   (None, 500, 120)          0         
_________________________________________________________________
conv1D_0 (Conv1D)            (None, 500, 120)          28920     
_________________________________________________________________
batch_normalization_10 (Batc (None, 500, 120)          480       
_________________________________________________________________
activation_15 (Activation)   (None, 500, 120)          0         
_________________________________________________________________
spatial_dropout1d_10 (Spatia (None, 500, 120)          0         
_________________________________________________________________
conv1D_1 (Conv1D)            (None, 500, 120)          28920     
_________________________________________________________________
batch_normalization_11 (Batc (None, 500, 120)          480       
_________________________________________________________________
activation_16 (Activation)   (None, 500, 120)          0         
_________________________________________________________________
spatial_dropout1d_11 (Spatia (None, 500, 120)          0         
_________________________________________________________________
matching_identity (Lambda)   (None, 500, 120)          0         
_________________________________________________________________
activation_20 (Activation)   (None, 500, 120)          0         
_________________________________________________________________
conv1D_0 (Conv1D)            (None, 500, 120)          28920     
_________________________________________________________________
batch_normalization_12 (Batc (None, 500, 120)          480       
_________________________________________________________________
activation_18 (Activation)   (None, 500, 120)          0         
_________________________________________________________________
spatial_dropout1d_12 (Spatia (None, 500, 120)          0         
_________________________________________________________________
conv1D_1 (Conv1D)            (None, 500, 120)          28920     
_________________________________________________________________
batch_normalization_13 (Batc (None, 500, 120)          480       
_________________________________________________________________
activation_19 (Activation)   (None, 500, 120)          0         
_________________________________________________________________
spatial_dropout1d_13 (Spatia (None, 500, 120)          0         
_________________________________________________________________
lambda (Lambda)              (None, 120)               0         
_________________________________________________________________
batch_normalization_1 (Batch (None, 120)               480       
_________________________________________________________________
flatten (Flatten)            (None, 120)               0         
_________________________________________________________________
dense (Dense)                (None, 120)               14520     
=================================================================
Total params: 427,080
Trainable params: 423,240
Non-trainable params: 3,840
_________________________________________________________________
Epoch 1/10
1/1 [==============================] - ETA: 0s - loss: 15033178.00001/1 [==============================] - 0s 2ms/step - loss: 15033178.0000
…
