Model: "model"
_________________________________________________________________
Layer (type)                 Output Shape              Param #   
=================================================================
input_1 (InputLayer)         [(None, 20, 1)]           0         
_________________________________________________________________
lstm (LSTM)                  (None, 20, 50)            10400     
_________________________________________________________________
lstm_1 (LSTM)                (None, 20, 50)            20200     
_________________________________________________________________
lstm_2 (LSTM)                (None, 20, 50)            20200     
_________________________________________________________________
lstm_3 (LSTM)                (None, 50)                20200     
=================================================================
Total params: 71,000
Trainable params: 71,000
Non-trainable params: 0
_________________________________________________________________
Model: "model_1"
_________________________________________________________________
Layer (type)                 Output Shape              Param #   
=================================================================
input3 (InputLayer)          [(None, 20, 1)]           0         
_________________________________________________________________
model (Model)                (None, 50)                71000     
_________________________________________________________________
price_1 (Dense)              (None, 60)                3060      
_________________________________________________________________
price (Dense)                (None, 1)                 61        
=================================================================
Total params: 74,121
Trainable params: 74,121
Non-trainable params: 0
_________________________________________________________________
Model: "model"
_________________________________________________________________
Layer (type)                 Output Shape              Param #   
=================================================================
input_1 (InputLayer)         [(None, 20, 1)]           0         
_________________________________________________________________
lstm (LSTM)                  (None, 20, 50)            10400     
_________________________________________________________________
lstm_1 (LSTM)                (None, 20, 50)            20200     
_________________________________________________________________
lstm_2 (LSTM)                (None, 20, 50)            20200     
_________________________________________________________________
lstm_3 (LSTM)                (None, 50)                20200     
=================================================================
Total params: 71,000
Trainable params: 71,000
Non-trainable params: 0
_________________________________________________________________
  1/341 [..............................] - ETA: 0s - loss: 0.4052 - mae: 0.6365  2/341 [.......................
…
