Model: "model"
__________________________________________________________________________________________________
Layer (type)                    Output Shape         Param #     Connected to                     
==================================================================================================
input_3 (InputLayer)            [(None, 20, 30, 2, 1 0                                            
__________________________________________________________________________________________________
lambda_1 (Lambda)               (None, 20, 60)       0           input_3[0][0]                    
__________________________________________________________________________________________________
batch_normalization (BatchNorma (None, 20, 60)       240         lambda_1[0][0]                   
__________________________________________________________________________________________________
tcn (TCN)                       (None, 20, 128)      925824      batch_normalization[0][0]        
__________________________________________________________________________________________________
flatten (Flatten)               (None, 2560)         0           tcn[0][0]                        
__________________________________________________________________________________________________
input_1 (InputLayer)            [(None, 20, 1)]      0                                            
__________________________________________________________________________________________________
input_2 (InputLayer)            [(None, 20, 1)]      0                                            
__________________________________________________________________________________________________
dense (Dense)                   (None, 120)          307320      flatten[0][0]                    
==================================================================================================
Total params: 1,233,384
Trainable params: 1,226,096
Non-trainable params: 7,288
__________________________________________________________________________________________________
Model: "model_1"
__________________________________________________________________________________________________
…
input_1 (InputLayer)            [(None, 20, 1)]      0                                            
__________________________________________________________________________________________________
input_2 (InputLayer)            [(None, 20, 1)]      0                                            
__________________________________________________________________________________________________
input_3 (InputLayer)            [(None, 20, 30, 2, 1 0                                            
__________________________________________________________________________________________________
model (Model)                   (None, 120)          1233384     input_1[0][0]                    
                                                                 input_2[0][0]                    
                                                                 input_3[0][0]                    
__________________________________________________________________________________________________
side_1 (Dense)                  (None, 60)           7260        model[1][0]                      
__________________________________________________________________________________________________
side (Dense)                    (None, 41)           2501        side_1[0][0]                     
==================================================================================================
Total params: 1,243,145
Trainable params: 1,235,857
Non-trainable params: 7,288
__________________________________________________________________________________________________
Model: "model"
__________________________________________________________________________________________________
Layer (type)                    Output Shape         Param #     Connected to                     
==================================================================================================
input_3 (InputLayer)            [(None, 20, 30, 2, 1 0                                            
__________________________________________________________________________________________________
lambda_1 (Lambda)               (None, 20, 60)       0           input_3[0][0]                    
__________________________________________________________________________________________________
batch_normalization (BatchNorma (None, 20, 60)       240         lambda_1[0][0]                   
__________________________________________________________________________________________________
matching_conv1D (Conv1D)        (None, 20, 128)      7808                                         
__________________________________________________________________________________________________
activation_2 (Activation)       (None, 20, 128)      0                                            
__________________________________________________________________________________________________
conv1D_0 (Conv1D)               (None, 20, 128)      15488                                        
__________________________________________________________________________________________________
batch_normalization (BatchNorma (None, 20, 128)      512                                          
__________________________________________________________________________________________________
activation (Activation)         (None, 20, 128)      0                                            
__________________________________________________________________________________________________
spatial_dropout1d (SpatialDropo (None, 20, 128)      0                                            
__________________________________________________________________________________________________
conv1D_1 (Conv1D)               (None, 20, 128)      32896                                        
__________________________________________________________________________________________________
batch_normalization_1 (BatchNor (None, 20, 128)      512                                          
__________________________________________________________________________________________________
activation_1 (Activation)       (None, 20, 128)      0                                            
__________________________________________________________________________________________________
spatial_dropout1d_1 (SpatialDro (None, 20, 128)      0                                            
__________________________________________________________________________________________________
matching_identity (Lambda)      (None, 20, 128)      0                                            
__________________________________________________________________________________________________
activation_5 (Activation)       (None, 20, 128)      0                                            
__________________________________________________________________________________________________
conv1D_0 (Conv1D)               (None, 20, 128)      32896                                        
__________________________________________________________________________________________________
batch_normalization_2 (BatchNor (None, 20, 128)      512                                          
__________________________________________________________________________________________________
activation_3 (Activation)       (None, 20, 128)      0                                            
__________________________________________________________________________________________________
spatial_dropout1d_2 (SpatialDro (None, 20, 128)      0                                            
__________________________________________________________________________________________________
conv1D_1 (Conv1D)               (None, 20, 128)      32896                                        
__________________________________________________________________________________________________
batch_normalization_3 (BatchNor (None, 20, 128)      512                                          
__________________________________________________________________________________________________
activation_4 (Activation)       (None, 20, 128)      0                                            
__________________________________________________________________________________________________
spatial_dropout1d_3 (SpatialDro (None, 20, 128)      0                                            
__________________________________________________________________________________________________
matching_identity (Lambda)      (None, 20, 128)      0                                            
__________________________________________________________________________________________________
activation_8 (Activation)       (None, 20, 128)      0                                            
__________________________________________________________________________________________________
conv1D_0 (Conv1D)               (None, 20, 128)      32896                                        
__________________________________________________________________________________________________
batch_normalization_4 (BatchNor (None, 20, 128)      512                                          
__________________________________________________________________________________________________
activation_6 (Activation)       (None, 20, 128)      0                                            
__________________________________________________________________________________________________
spatial_dropout1d_4 (SpatialDro (None, 20, 128)      0                                            
__________________________________________________________________________________________________
conv1D_1 (Conv1D)               (None, 20, 128)      32896                                        
__________________________________________________________________________________________________
batch_normalization_5 (BatchNor (None, 20, 128)      512                                          
__________________________________________________________________________________________________
activation_7 (Activation)       (None, 20, 128)      0                                            
__________________________________________________________________________________________________
spatial_dropout1d_5 (SpatialDro (None, 20, 128)      0                                            
__________________________________________________________________________________________________
matching_identity (Lambda)      (None, 20, 128)      0                                            
__________________________________________________________________________________________________
activation_11 (Activation)      (None, 20, 128)      0                                            
__________________________________________________________________________________________________
conv1D_0 (Conv1D)               (None, 20, 128)      32896                                        
__________________________________________________________________________________________________
batch_normalization_6 (BatchNor (None, 20, 128)      512                                          
__________________________________________________________________________________________________
activation_9 (Activation)       (None, 20, 128)      0                                            
__________________________________________________________________________________________________
spatial_dropout1d_6 (SpatialDro (None, 20, 128)      0                                            
__________________________________________________________________________________________________
conv1D_1 (Conv1D)               (None, 20, 128)      32896                                        
__________________________________________________________________________________________________
batch_normalization_7 (BatchNor (None, 20, 128)      512                                          
__________________________________________________________________________________________________
activation_10 (Activation)      (None, 20, 128)      0                                            
__________________________________________________________________________________________________
spatial_dropout1d_7 (SpatialDro (None, 20, 128)      0                                            
__________________________________________________________________________________________________
matching_identity (Lambda)      (None, 20, 128)      0                                            
__________________________________________________________________________________________________
activation_14 (Activation)      (None, 20, 128)      0                                            
__________________________________________________________________________________________________
conv1D_0 (Conv1D)               (None, 20, 128)      32896                                        
__________________________________________________________________________________________________
batch_normalization_8 (BatchNor (None, 20, 128)      512                                          
__________________________________________________________________________________________________
activation_12 (Activation)      (None, 20, 128)      0                                            
__________________________________________________________________________________________________
spatial_dropout1d_8 (SpatialDro (None, 20, 128)      0                                            
__________________________________________________________________________________________________
conv1D_1 (Conv1D)               (None, 20, 128)      32896                                        
__________________________________________________________________________________________________
batch_normalization_9 (BatchNor (None, 20, 128)      512                                          
__________________________________________________________________________________________________
activation_13 (Activation)      (None, 20, 128)      0                                            
__________________________________________________________________________________________________
spatial_dropout1d_9 (SpatialDro (None, 20, 128)      0                                            
__________________________________________________________________________________________________
matching_identity (Lambda)      (None, 20, 128)      0                                            
__________________________________________________________________________________________________
activation_17 (Activation)      (None, 20, 128)      0                                            
__________________________________________________________________________________________________
conv1D_0 (Conv1D)               (None, 20, 128)      32896                                        
__________________________________________________________________________________________________
batch_normalization_10 (BatchNo (None, 20, 128)      512                                          
__________________________________________________________________________________________________
activation_15 (Activation)      (None, 20, 128)      0                                            
__________________________________________________________________________________________________
spatial_dropout1d_10 (SpatialDr (None, 20, 128)      0                                            
__________________________________________________________________________________________________
conv1D_1 (Conv1D)               (None, 20, 128)      32896                                        
__________________________________________________________________________________________________
batch_normalization_11 (BatchNo (None, 20, 128)      512                                          
__________________________________________________________________________________________________
activation_16 (Activation)      (None, 20, 128)      0                                            
__________________________________________________________________________________________________
spatial_dropout1d_11 (SpatialDr (None, 20, 128)      0                                            
__________________________________________________________________________________________________
matching_identity (Lambda)      (None, 20, 128)      0                                            
__________________________________________________________________________________________________
activation_20 (Activation)      (None, 20, 128)      0                                            
__________________________________________________________________________________________________
conv1D_0 (Conv1D)               (None, 20, 128)      32896                                        
__________________________________________________________________________________________________
batch_normalization_12 (BatchNo (None, 20, 128)      512                                          
__________________________________________________________________________________________________
activation_18 (Activation)      (None, 20, 128)      0                                            
__________________________________________________________________________________________________
spatial_dropout1d_12 (SpatialDr (None, 20, 128)      0                                            
__________________________________________________________________________________________________
conv1D_1 (Conv1D)               (None, 20, 128)      32896                                        
__________________________________________________________________________________________________
batch_normalization_13 (BatchNo (None, 20, 128)      512                                          
__________________________________________________________________________________________________
activation_19 (Activation)      (None, 20, 128)      0                                            
__________________________________________________________________________________________________
spatial_dropout1d_13 (SpatialDr (None, 20, 128)      0                                            
__________________________________________________________________________________________________
matching_identity (Lambda)      (None, 20, 128)      0                                            
__________________________________________________________________________________________________
activation_23 (Activation)      (None, 20, 128)      0                                            
__________________________________________________________________________________________________
conv1D_0 (Conv1D)               (None, 20, 128)      32896                                        
__________________________________________________________________________________________________
batch_normalization_14 (BatchNo (None, 20, 128)      512                                          
__________________________________________________________________________________________________
activation_21 (Activation)      (None, 20, 128)      0                                            
__________________________________________________________________________________________________
spatial_dropout1d_14 (SpatialDr (None, 20, 128)      0                                            
__________________________________________________________________________________________________
conv1D_1 (Conv1D)               (None, 20, 128)      32896                                        
__________________________________________________________________________________________________
batch_normalization_15 (BatchNo (None, 20, 128)      512                                          
__________________________________________________________________________________________________
activation_22 (Activation)      (None, 20, 128)      0                                            
__________________________________________________________________________________________________
spatial_dropout1d_15 (SpatialDr (None, 20, 128)      0                                            
__________________________________________________________________________________________________
matching_identity (Lambda)      (None, 20, 128)      0                                            
__________________________________________________________________________________________________
activation_26 (Activation)      (None, 20, 128)      0                                            
__________________________________________________________________________________________________
conv1D_0 (Conv1D)               (None, 20, 128)      32896                                        
__________________________________________________________________________________________________
batch_normalization_16 (BatchNo (None, 20, 128)      512                                          
__________________________________________________________________________________________________
activation_24 (Activation)      (None, 20, 128)      0                                            
__________________________________________________________________________________________________
spatial_dropout1d_16 (SpatialDr (None, 20, 128)      0                                            
__________________________________________________________________________________________________
conv1D_1 (Conv1D)               (None, 20, 128)      32896                                        
__________________________________________________________________________________________________
batch_normalization_17 (BatchNo (None, 20, 128)      512                                          
__________________________________________________________________________________________________
activation_25 (Activation)      (None, 20, 128)      0                                            
__________________________________________________________________________________________________
spatial_dropout1d_17 (SpatialDr (None, 20, 128)      0                                            
__________________________________________________________________________________________________
matching_identity (Lambda)      (None, 20, 128)      0                                            
__________________________________________________________________________________________________
activation_29 (Activation)      (None, 20, 128)      0                                            
__________________________________________________________________________________________________
conv1D_0 (Conv1D)               (None, 20, 128)      32896                                        
__________________________________________________________________________________________________
batch_normalization_18 (BatchNo (None, 20, 128)      512                                          
__________________________________________________________________________________________________
activation_27 (Activation)      (None, 20, 128)      0                                            
__________________________________________________________________________________________________
spatial_dropout1d_18 (SpatialDr (None, 20, 128)      0                                            
__________________________________________________________________________________________________
conv1D_1 (Conv1D)               (None, 20, 128)      32896                                        
__________________________________________________________________________________________________
batch_normalization_19 (BatchNo (None, 20, 128)      512                                          
__________________________________________________________________________________________________
activation_28 (Activation)      (None, 20, 128)      0                                            
__________________________________________________________________________________________________
spatial_dropout1d_19 (SpatialDr (None, 20, 128)      0                                            
__________________________________________________________________________________________________
matching_identity (Lambda)      (None, 20, 128)      0                                            
__________________________________________________________________________________________________
activation_32 (Activation)      (None, 20, 128)      0                                            
__________________________________________________________________________________________________
conv1D_0 (Conv1D)               (None, 20, 128)      32896                                        
__________________________________________________________________________________________________
batch_normalization_20 (BatchNo (None, 20, 128)      512                                          
__________________________________________________________________________________________________
activation_30 (Activation)      (None, 20, 128)      0                                            
__________________________________________________________________________________________________
spatial_dropout1d_20 (SpatialDr (None, 20, 128)      0                                            
__________________________________________________________________________________________________
conv1D_1 (Conv1D)               (None, 20, 128)      32896                                        
__________________________________________________________________________________________________
batch_normalization_21 (BatchNo (None, 20, 128)      512                                          
__________________________________________________________________________________________________
activation_31 (Activation)      (None, 20, 128)      0                                            
__________________________________________________________________________________________________
spatial_dropout1d_21 (SpatialDr (None, 20, 128)      0                                            
__________________________________________________________________________________________________
matching_identity (Lambda)      (None, 20, 128)      0                                            
__________________________________________________________________________________________________
activation_35 (Activation)      (None, 20, 128)      0                                            
__________________________________________________________________________________________________
conv1D_0 (Conv1D)               (None, 20, 128)      32896                                        
__________________________________________________________________________________________________
batch_normalization_22 (BatchNo (None, 20, 128)      512                                          
__________________________________________________________________________________________________
activation_33 (Activation)      (None, 20, 128)      0                                            
__________________________________________________________________________________________________
spatial_dropout1d_22 (SpatialDr (None, 20, 128)      0                                            
__________________________________________________________________________________________________
conv1D_1 (Conv1D)               (None, 20, 128)      32896                                        
__________________________________________________________________________________________________
batch_normalization_23 (BatchNo (None, 20, 128)      512                                          
__________________________________________________________________________________________________
activation_34 (Activation)      (None, 20, 128)      0                                            
__________________________________________________________________________________________________
spatial_dropout1d_23 (SpatialDr (None, 20, 128)      0                                            
__________________________________________________________________________________________________
matching_identity (Lambda)      (None, 20, 128)      0                                            
__________________________________________________________________________________________________
activation_38 (Activation)      (None, 20, 128)      0                                            
__________________________________________________________________________________________________
conv1D_0 (Conv1D)               (None, 20, 128)      32896                                        
__________________________________________________________________________________________________
batch_normalization_24 (BatchNo (None, 20, 128)      512                                          
__________________________________________________________________________________________________
activation_36 (Activation)      (None, 20, 128)      0                                            
__________________________________________________________________________________________________
spatial_dropout1d_24 (SpatialDr (None, 20, 128)      0                                            
__________________________________________________________________________________________________
conv1D_1 (Conv1D)               (None, 20, 128)      32896                                        
__________________________________________________________________________________________________
batch_normalization_25 (BatchNo (None, 20, 128)      512                                          
__________________________________________________________________________________________________
activation_37 (Activation)      (None, 20, 128)      0                                            
__________________________________________________________________________________________________
spatial_dropout1d_25 (SpatialDr (None, 20, 128)      0                                            
__________________________________________________________________________________________________
matching_identity (Lambda)      (None, 20, 128)      0                                            
__________________________________________________________________________________________________
activation_41 (Activation)      (None, 20, 128)      0                                            
__________________________________________________________________________________________________
conv1D_0 (Conv1D)               (None, 20, 128)      32896                                        
__________________________________________________________________________________________________
batch_normalization_26 (BatchNo (None, 20, 128)      512                                          
__________________________________________________________________________________________________
activation_39 (Activation)      (None, 20, 128)      0                                            
__________________________________________________________________________________________________
spatial_dropout1d_26 (SpatialDr (None, 20, 128)      0                                            
__________________________________________________________________________________________________
conv1D_1 (Conv1D)               (None, 20, 128)      32896                                        
__________________________________________________________________________________________________
batch_normalization_27 (BatchNo (None, 20, 128)      512                                          
__________________________________________________________________________________________________
activation_40 (Activation)      (None, 20, 128)      0                                            
__________________________________________________________________________________________________
spatial_dropout1d_27 (SpatialDr (None, 20, 128)      0                                            
__________________________________________________________________________________________________
lambda (Lambda)                 multiple             0                                            
__________________________________________________________________________________________________
flatten (Flatten)               (None, 2560)         0           tcn[0][0]                        
__________________________________________________________________________________________________
input_1 (InputLayer)            [(None, 20, 1)]      0                                            
__________________________________________________________________________________________________
input_2 (InputLayer)            [(None, 20, 1)]      0                                            
__________________________________________________________________________________________________
dense (Dense)                   (None, 120)          307320      flatten[0][0]                    
==================================================================================================
Total params: 1,233,384
Trainable params: 1,226,096
Non-trainable params: 7,288
__________________________________________________________________________________________________
 1/84 [..............................] - ETA: 0s - loss: 15.2185 - sparse_categor
…
