Model: "model"
_________________________________________________________________
Layer (type)                 Output Shape              Param #   
=================================================================
input_1 (InputLayer)         [(None, 25, 30, 2, 1)]    0         
_________________________________________________________________
lambda_1 (Lambda)            (None, 25, 60)            0         
_________________________________________________________________
batch_normalization (BatchNo (None, 25, 60)            240       
_________________________________________________________________
tcn (TCN)                    (None, 25, 128)           925824    
_________________________________________________________________
flatten (Flatten)            (None, 3200)              0         
_________________________________________________________________
dense (Dense)                (None, 120)               384120    
=================================================================
Total params: 1,310,184
Trainable params: 1,302,896
Non-trainable params: 7,288
_________________________________________________________________
Model: "model_1"
_________________________________________________________________
Layer (type)                 Output Shape              Param #   
=================================================================
input (InputLayer)           [(None, 25, 30, 2, 1)]    0         
_________________________________________________________________
model (Model)                (None, 120)               1310184   
_________________________________________________________________
dense_1 (Dense)              (None, 21)                2541      
=================================================================
Total params: 1,312,725
Trainable params: 1,305,437
Non-trainable params: 7,288
_________________________________________________________________
Model: "model"
_________________________________________________________________
Layer (type)                 Output Shape              Param #   
=================================================================
input_1 (InputLayer)         [(None, 25, 30, 2, 1)]    0         
_________________________________________________________________
lambda_1 (Lambda)            (None, 25, 60)            0         
_________________________________________________________________
batch_normalization (BatchNo (None, 25, 60)            240       
_________________________________________________________________
matching_conv1D (Conv1D)     (None, 25, 128)           7808      
_________________________________________________________________
activation_2 (Activation)    (None, 25, 128)           0         
_________________________________________________________________
conv1D_0 (Conv1D)            (None, 25, 128)           15488     
_________________________________________________________________
batch_normalization (BatchNo (None, 25, 128)           512       
_________________________________________________________________
activation (Activation)      (None, 25, 128)           0         
_________________________________________________________________
spatial_dropout1d (SpatialDr (None, 25, 128)           0         
_________________________________________________________________
conv1D_1 (Conv1D)            (None, 25, 128)           32896     
_________________________________________________________________
batch_normalization_1 (Batch (None, 25, 128)           512       
_________________________________________________________________
activation_1 (Activation)    (None, 25, 128)           0         
_________________________________________________________________
spatial_dropout1d_1 (Spatial (None, 25, 128)           0         
_________________________________________________________________
matching_identity (Lambda)   (None, 25, 128)           0         
_________________________________________________________________
activation_5 (Activation)    (None, 25, 128)           0         
_________________________________________________________________
conv1D_0 (Conv1D)            (None, 25, 128)           32896     
_________________________________________________________________
batch_normalization_2 (Batch (None, 25, 128)           512       
_________________________________________________________________
activation_3 (Activation)    (None, 25, 128)           0         
_________________________________________________________________
spatial_dropout1d_2 (Spatial (None, 25, 128)           0         
_________________________________________________________________
conv1D_1 (Conv1D)            (None, 25, 128)           32896     
_________________________________________________________________
batch_normalization_3 (Batch (None, 25, 128)           512       
_________________________________________________________________
activation_4 (Activation)    (None, 25, 128)           0         
_________________________________________________________________
spatial_dropout1d_3 (Spatial (None, 25, 128)           0         
_________________________________________________________________
matching_identity (Lambda)   (None, 25, 128)           0         
_________________________________________________________________
activation_8 (Activation)    (None, 25, 128)           0         
_________________________________________________________________
conv1D_0 (Conv1D)            (None, 25, 128)           32896     
_________________________________________________________________
batch_normalization_4 (Batch (None, 25, 128)           512       
_________________________________________________________________
activation_6 (Activation)    (None, 25, 128)           0         
_________________________________________________________________
spatial_dropout1d_4 (Spatial (None, 25, 128)           0         
_________________________________________________________________
conv1D_1 (Conv1D)            (None, 25, 128)           32896     
_________________________________________________________________
batch_normalization_5 (Batch (None, 25, 128)           512       
_________________________________________________________________
activation_7 (Activation)    (None, 25, 128)           0         
_________________________________________________________________
spatial_dropout1d_5 (Spatial (None, 25, 128)           0         
_________________________________________________________________
matching_identity (Lambda)   (None, 25, 128)           0         
_________________________________________________________________
activation_11 (Activation)   (None, 25, 128)           0         
_________________________________________________________________
conv1D_0 (Conv1D)            (None, 25, 128)           32896     
_________________________________________________________________
batch_normalization_6 (Batch (None, 25, 128)           512       
_________________________________________________________________
activation_9 (Activation)    (None, 25, 128)           0         
_________________________________________________________________
spatial_dropout1d_6 (Spatial (None, 25, 128)           0         
_________________________________________________________________
conv1D_1 (Conv1D)            (None, 25, 128)           32896     
_________________________________________________________________
batch_normalization_7 (Batch (None, 25, 128)           512       
_________________________________________________________________
activation_10 (Activation)   (None, 25, 128)           0         
_________________________________________________________________
spatial_dropout1d_7 (Spatial (None, 25, 128)           0         
_________________________________________________________________
matching_identity (Lambda)   (None, 25, 128)           0         
_________________________________________________________________
activation_14 (Activation)   (None, 25, 128)           0         
_________________________________________________________________
conv1D_0 (Conv1D)            (None, 25, 128)           32896     
_________________________________________________________________
batch_normalization_8 (Batch (None, 25, 128)           512       
_________________________________________________________________
activation_12 (Activation)   (None, 25, 128)           0         
_________________________________________________________________
spatial_dropout1d_8 (Spatial (None, 25, 128)           0         
_________________________________________________________________
conv1D_1 (Conv1D)            (None, 25, 128)           32896     
_________________________________________________________________
batch_normalization_9 (Batch (None, 25, 128)           512       
_________________________________________________________________
activation_13 (Activation)   (None, 25, 128)           0         
_________________________________________________________________
spatial_dropout1d_9 (Spatial (None, 25, 128)           0         
_________________________________________________________________
matching_identity (Lambda)   (None, 25, 128)           0         
_________________________________________________________________
activation_17 (Activation)   (None, 25, 128)           0         
_________________________________________________________________
conv1D_0 (Conv1D)            (None, 25, 128)           32896     
_________________________________________________________________
batch_normalization_10 (Batc (None, 25, 128)           512       
_________________________________________________________________
activation_15 (Activation)   (None, 25, 128)           0         
_________________________________________________________________
spatial_dropout1d_10 (Spatia (None, 25, 128)           0         
_________________________________________________________________
conv1D_1 (Conv1D)            (None, 25, 128)           32896     
_________________________________________________________________
batch_normalization_11 (Batc (None, 25, 128)           512       
_________________________________________________________________
activation_16 (Activation)   (None, 25, 128)           0         
_________________________________________________________________
spatial_dropout1d_11 (Spatia (None, 25, 128)           0         
_________________________________________________________________
matching_identity (Lambda)   (None, 25, 128)           0         
_________________________________________________________________
activation_20 (Activation)   (None, 25, 128)           0         
_________________________________________________________________
conv1D_0 (Conv1D)            (None, 25, 128)           32896     
_________________________________________________________________
batch_normalization_12 (Batc (None, 25, 128)           512       
_________________________________________________________________
activation_18 (Activation)   (None, 25, 128)           0         
_________________________________________________________________
spatial_dropout1d_12 (Spatia (None, 25, 128)           0         
_________________________________________________________________
conv1D_1 (Conv1D)            (None, 25, 128)           32896     
_________________________________________________________________
batch_normalization_13 (Batc (None, 25, 128)           512       
_________________________________________________________________
activation_19 (Activation)   (None, 25, 128)           0         
_________________________________________________________________
spatial_dropout1d_13 (Spatia (None, 25, 128)           0         
_________________________________________________________________
matching_identity (Lambda)   (None, 25, 128)           0         
_________________________________________________________________
activation_23 (Activation)   (None, 25, 128)           0         
_________________________________________________________________
conv1D_0 (Conv1D)            (None, 25, 128)           32896     
_________________________________________________________________
batch_normalization_14 (Batc (None, 25, 128)           512       
_________________________________________________________________
activation_21 (Activation)   (None, 25, 128)           0         
_________________________________________________________________
spatial_dropout1d_14 (Spatia (None, 25, 128)           0         
_________________________________________________________________
conv1D_1 (Conv1D)            (None, 25, 128)           32896     
_________________________________________________________________
batch_normalization_15 (Batc (None, 25, 128)           512       
_________________________________________________________________
activation_22 (Activation)   (None, 25, 128)           0         
_________________________________________________________________
spatial_dropout1d_15 (Spatia (None, 25, 128)           0         
_________________________________________________________________
matching_identity (Lambda)   (None, 25, 128)           0         
_________________________________________________________________
activation_26 (Activation)   (None, 25, 128)           0         
_________________________________________________________________
conv1D_0 (Conv1D)            (None, 25, 128)           32896     
_________________________________________________________________
batch_normalization_16 (Batc (None, 25, 128)           512       
_________________________________________________________________
activation_24 (Activation)   (None, 25, 128)           0         
_________________________________________________________________
spatial_dropout1d_16 (Spatia (None, 25, 128)           0         
_________________________________________________________________
conv1D_1 (Conv1D)            (None, 25, 128)           32896     
_________________________________________________________________
batch_normalization_17 (Batc (None, 25, 128)           512       
_________________________________________________________________
activation_25 (Activation)   (None, 25, 128)           0         
_________________________________________________________________
spatial_dropout1d_17 (Spatia (None, 25, 128)           0         
_________________________________________________________________
matching_identity (Lambda)   (None, 25, 128)           0         
_________________________________________________________________
activation_29 (Activation)   (None, 25, 128)           0         
_________________________________________________________________
conv1D_0 (Conv1D)            (None, 25, 128)           32896     
_________________________________________________________________
batch_normalization_18 (Batc (None, 25, 128)           512       
_________________________________________________________________
activation_27 (Activation)   (None, 25, 128)           0         
_________________________________________________________________
spatial_dropout1d_18 (Spatia (None, 25, 128)           0         
_________________________________________________________________
conv1D_1 (Conv1D)            (None, 25, 128)           32896     
_________________________________________________________________
batch_normalization_19 (Batc (None, 25, 128)           512       
_________________________________________________________________
activation_28 (Activation)   (None, 25, 128)           0         
_________________________________________________________________
spatial_dropout1d_19 (Spatia (None, 25, 128)           0         
_________________________________________________________________
matching_identity (Lambda)   (None, 25, 128)           0         
_________________________________________________________________
activation_32 (Activation)   (None, 25, 128)           0         
_________________________________________________________________
conv1D_0 (Conv1D)            (None, 25, 128)           32896     
_________________________________________________________________
batch_normalization_20 (Batc (None, 25, 128)           512       
_________________________________________________________________
activation_30 (Activation)   (None, 25, 128)           0         
_________________________________________________________________
spatial_dropout1d_20 (Spatia (None, 25, 128)           0         
_________________________________________________________________
conv1D_1 (Conv1D)            (None, 25, 128)           32896     
_________________________________________________________________
batch_normalization_21 (Batc (None, 25, 128)           512       
_________________________________________________________________
activation_31 (Activation)   (None, 25, 128)           0         
_________________________________________________________________
spatial_dropout1d_21 (Spatia (None, 25, 128)           0         
_________________________________________________________________
matching_identity (Lambda)   (None, 25, 128)           0         
_________________________________________________________________
activation_35 (Activation)   (None, 25, 128)           0         
_________________________________________________________________
conv1D_0 (Conv1D)            (None, 25, 128)           32896     
_________________________________________________________________
batch_normalization_22 (Batc (None, 25, 128)           512       
_________________________________________________________________
activation_33 (Activation)   (None, 25, 128)           0         
_________________________________________________________________
spatial_dropout1d_22 (Spatia (None, 25, 128)           0         
_________________________________________________________________
conv1D_1 (Conv1D)            (None, 25, 128)           32896     
_________________________________________________________________
batch_normalization_23 (Batc (None, 25, 128)           512       
_________________________________________________________________
activation_34 (Activation)   (None, 25, 128)           0         
_________________________________________________________________
spatial_dropout1d_23 (Spatia (None, 25, 128)           0         
_________________________________________________________________
matching_identity (Lambda)   (None, 25, 128)           0         
_________________________________________________________________
activation_38 (Activation)   (None, 25, 128)           0         
_________________________________________________________________
conv1D_0 (Conv1D)            (None, 25, 128)           32896     
_________________________________________________________________
batch_normalization_24 (Batc (None, 25, 128)           512       
_________________________________________________________________
activation_36 (Activation)   (None, 25, 128)           0         
_________________________________________________________________
spatial_dropout1d_24 (Spatia (None, 25, 128)           0         
_________________________________________________________________
conv1D_1 (Conv1D)            (None, 25, 128)           32896     
_________________________________________________________________
batch_normalization_25 (Batc (None, 25, 128)           512       
_________________________________________________________________
activation_37 (Activation)   (None, 25, 128)           0         
_________________________________________________________________
spatial_dropout1d_25 (Spatia (None, 25, 128)           0         
_________________________________________________________________
matching_identity (Lambda)   (None, 25, 128)           0         
_________________________________________________________________
activation_41 (Activation)   (None, 25, 128)           0         
_________________________________________________________________
conv1D_0 (Conv1D)            (None, 25, 128)           32896     
_________________________________________________________________
batch_normalization_26 (Batc (None, 25, 128)           512       
_________________________________________________________________
activation_39 (Activation)   (None, 25, 128)           0         
_________________________________________________________________
spatial_dropout1d_26 (Spatia (None, 25, 128)           0         
_________________________________________________________________
conv1D_1 (Conv1D)            (None, 25, 128)           32896     
_________________________________________________________________
batch_normalization_27 (Batc (None, 25, 128)           512       
_________________________________________________________________
activation_40 (Activation)   (None, 25, 128)           0         
_________________________________________________________________
spatial_dropout1d_27 (Spatia (None, 25, 128)           0         
_________________________________________________________________
lambda (Lambda)              multiple                  0         
_________________________________________________________________
flatten (Flatten)            (None, 3200)              0         
_________________________________________________________________
dense (Dense)                (None, 120)               384120    
=================================================================
Total params: 1,310,184
Trainable params: 1,302,896
Non-trainable params: 7,288
_________________________________________________________________
Epoch 1/10
  1/399 [..............................] - ETA: 0s - loss: 15.2199 - acc: 0.2200 - categorical_true_positives: 11.0000
…
