Model: "model"
_________________________________________________________________
Layer (type)                 Output Shape              Param #   
=================================================================
input_1 (InputLayer)         [(None, 50, 30, 2, 1)]    0         
_________________________________________________________________
convlstm2d_1 (ConvLSTM2D)    (None, 50, 30, 2, 64)     150016    
_________________________________________________________________
batch_normalization (BatchNo (None, 50, 30, 2, 64)     256       
_________________________________________________________________
dropout_1 (Dropout)          (None, 50, 30, 2, 64)     0         
_________________________________________________________________
convlstm2d_2 (ConvLSTM2D)    (None, 50, 30, 2, 64)     295168    
_________________________________________________________________
batch_normalization_1 (Batch (None, 50, 30, 2, 64)     256       
_________________________________________________________________
flatten (Flatten)            (None, 192000)            0         
_________________________________________________________________
dense (Dense)                (None, 60)                11520060  
=================================================================
Total params: 11,965,756
Trainable params: 11,965,500
Non-trainable params: 256
_________________________________________________________________
Model: "model_1"
__________________________________________________________________________________________________
Layer (type)                    Output Shape         Param #     Connected to                     
==================================================================================================
input (InputLayer)              [(None, 50, 30, 2, 1 0                                            
__________________________________________________________________________________________________
model (Model)                   (None, 60)           11965756    input[0][0]                      
__________________________________________________________________________________________________
side (Dense)                    (None, 2)            122         model[1][0]                      
__________________________________________________________________________________________________
action (Dense)                  (None, 39)           2379        model[1][0]                      
__________________________________________________________________________________________________
price_level (Dense)             (None, 39)           2379        model[1][0]                      
__________________________________________________________________________________________________
liquidity (Dense)               (None, 39)           2379        model[1][0]                      
==================================================================================================
Total params: 11,973,015
Trainable params: 11,972,759
Non-trainable params: 256
__________________________________________________________________________________________________
Model: "model"
_________________________________________________________________
Layer (type)                 Output Shape              Param #   
=================================================================
input_1 (InputLayer)         [(None, 50, 30, 2, 1)]    0         
_________________________________________________________________
convlstm2d_1 (ConvLSTM2D)    (None, 50, 30, 2, 64)     150016    
_________________________________________________________________
batch_normalization (BatchNo (None, 50, 30, 2, 64)     256       
_________________________________________________________________
dropout_1 (Dropout)          (None, 50, 30, 2, 64)     0         
_________________________________________________________________
convlstm2d_2 (ConvLSTM2D)    (None, 50, 30, 2, 64)     295168    
_________________________________________________________________
batch_normalization_1 (Batch (None, 50, 30, 2, 64)     256       
_________________________________________________________________
flatten (Flatten)            (None, 192000)            0         
_________________________________________________________________
dense (Dense)                (None, 60)                11520060  
=================================================================
Total params: 11,965,756
Trainable params: 11,965,500
Non-trainable params: 256
_________________________________________________________________
Epoch 1/10
  1/124 [..............................] - ETA: 0s - loss: 14.6004 - side_loss: 1.5140 - action_loss: 5.3601 - price_level_loss: 4.6997 - liquidity_loss: 2.9066 - side_binar
…
